Layer name,IFMAP Height,IFMAP Width,Filter Height,Filter Width,Channels,Num Filter,Strides
conv1,224,224,3,3,3,32,2,2
bneck1,112,112,3,3,32,16,1,1
bneck2,112,112,3,3,16,24,2,2
bneck3,56,56,3,3,24,40,2,2
bneck4,28,28,5,5,40,80,2,2
bneck5,14,14,5,5,80,112,1,1
bneck6,14,14,5,5,112,192,2,2
bneck7,7,7,3,3,192,320,1,1
conv2,7,7,1,1,320,1280,1,1
fc,1,1,1,1,1280,1000,1,1
